2025无人系统具身智能算法挑战赛_机械臂场景应用挑战赛_线上仿真初赛/源码/EAICON/Content/Go2/robot/go2_policy.pt (torch, 775760 bytes, 8 tensors)

weight f4 [512, 48]
0.023134824 -0.25916198 0.48193264 0.21490355 -0.041120753 -0.42348173 -0.3909166 -0.27895823
0.05913126 0.15122397 0.4020838 0.31615058 -0.1838016 -0.04659077 -0.24731019 0.09896389
-0.45950735 0.00054766226 -0.14581145 -0.2484995 -0.07258222 0.39576936 0.017446036 0.27420884
-0.06398119 0.08948688 0.062471054 0.07737973 -0.019672904 0.08140219 0.03833373 -0.10734406
-0.03705686 0.0026763505 0.0056174155 0.04870695 0.19235425 0.19797581 -0.11800619 -0.0892627
-0.002022684 -0.08436208 0.008310967 0.089072265 -0.027391735 0.040747885 0.070664436 -0.018387869
-0.074459486 -0.124972604 0.14057799 0.1962277 0.0045527066 0.007339991 -0.43934765 -0.34422335
0.26746505 0.111317106 -0.055997428 -0.1214787 0.008302421 -0.1910968 0.009097344 0.19404319
0.23324238 0.04316748 -0.15339944 -0.21826002 -0.14259993 -0.55874276 -0.3267345 -0.23784445
0.054977294 0.007439838 0.078899786 -0.012124092 0.06556257 0.079141006 0.15640059 -0.043934505
-0.005176092 -0.034972377 -0.118826136 -0.012782676 -0.13209188 0.061787505 0.052641258 -0.018207349
-0.23656501 0.05571749 -0.14886293 -0.13430887 0.06277976 0.18158384 0.2027504 -0.15039562
0.1324071 -0.1560797 -0.63813686 -0.03795671 0.027766768 0.0035925927 -0.31880558 -0.6327239
-0.011733493 0.09317533 -0.17548843 0.4267742 0.605833 0.052165058 -0.07826457 -0.49199462
-0.2546079 0.19310868 -0.0346282 -0.17920169 -0.28242826 0.26809815 0.040823918 0.037271425
0.06508219 -0.051605575 -0.0014111714 -0.035887133 0.042910602 -0.05098787 0.10008106 -0.009302267
0.014095828 -0.035231434 0.024137534 -0.028860617 -0.007444129 0.13190892 -0.23342575 -0.018144537
-0.061541412 0.09010825 0.12920456 -0.019857159 -0.08547531 -0.016472323 -0.18205269 0.06717202
-0.06431081 -0.18467617 -0.8200828 -0.077340074 -0.23428494 0.13537323 -0.64750826 0.6547353
0.09328067 -0.056179475 0.18362233 -0.06505622 -0.35363862 -0.38656658 -0.15720248 -0.31465662
-0.27370736 -0.32125744 -0.39823252 0.052424975 -0.26528335 -0.079761334 -0.15286982 0.6396212
-0.12831554 0.031401157 -0.013513495 0.117267475 0.09684492 0.09018155 -0.0039658183 0.09835119
0.045872513 0.06314192 0.012093452 0.040243004 0.18091695 -0.029041406 -0.11642888 -0.008279906
-0.014947992 -0.059337337 0.08625704 0.02147365 0.09481878 -0.1977172 -0.013614431 -0.016818514
0.34552994 -0.06529139 0.58449805 -0.10805697 -0.19719383 -0.0025380442 -0.47951657 -0.43843135
0.22288366 0.273061 -0.053790107 0.11551696 0.1061411 -0.25767985 -0.06397512 -0.25747848
-0.1533831 0.44078147 0.5143823 -0.20352271 -0.47777006 -0.009044286 0.07791018 -0.116263874
0.10962091 -0.060470216 0.009766133 -0.1014742 0.056212366 0.108768426 -0.06924612 -0.10427414
0.0029704284 0.027078748 -0.020441715 -0.019710233 -0.107737266 0.012447527 -0.089477316 -0.017007882
0.2161141 -0.04039572 0.11664364 0.12402419 0.019554414 -0.16310982 0.014059715 -0.105564885
-0.17304249 -0.17005827 0.5514545 0.18912691 0.194414 -0.09869883 1.2817643 0.9361935
0.029590053 -0.07971111 -0.064782955 -0.27095437 0.11831394 -0.11716308 0.10458302 -0.3424896
00000000: 3e85 bd3c e1b0 84be e0bf f63e ad0f 5c3e
00000010: 3c6e 28bd 99d2 d8be 3826 c8be 9dd3 8ebe
00000020: 9f33 723d 75da 1a3e eedd cd3e 7dde a13e
00000030: 7d36 3cbe f7d5 3ebd e23e 7dbe 94ad ca3d
00000040: 8c44 ebbe fe90 0f3a 994f 15be a776 7ebe
00000050: fda5 94bd 48a2 ca3e fdea 8e3c 1a65 8c3e
00000060: 9208 83bd e644 b73d a6e1 7f3d 4479 9e3d
00000070: 1229 a1bc 31b6 a63d d403 1d3d 34d7 dbbd
00000080: efc8 17bd b665 2f3b 4c12 b83b f080 473d
00000090: 83f8 443e 2cba 4a3e 3bad f1bd 5dcf b6bd
000000a0: 028f 04bb 07c6 acbd b92a 083c 856b b63d
000000b0: a264 e0bc 41e7 263d 84b8 903d 28a2 96bc
000000c0: 377e 98bd a3f1 ffbd adf3 0f3e eaef 483e
000000d0: df2e 953b 4f84 f03b 2df2 e0be 0b3e b0be
000000e0: 2ef1 883e 39fa e33d 8f5d 65bd d3c9 f8bd
000000f0: e106 083c e1ae 43be 070d 153c 42b3 463e
00000100: 17d7 6e3e 62d0 303d be14 1dbe 8e7f 5fbe
00000110: b705 12be c409 0fbf bf49 a7be 7f8d 73be
00000120: df2f 613d e2c9 f33b 3696 a13d 21a4 46bc
00000130: ab45 863d ae14 a23d 7a27 203e abf4 33bd
00000140: 359c a9bb 323f 0fbd 1e5b f3bd 6e6e 51bc
00000150: 1843 07be e514 7d3d 5c9e 573d 9427 95bc
00000160: 193e 72be 0638 643d 866f 18be 4488 09be
00000170: ad92 803d 1df1 393e cd9d 4f3e 4f01 1abe
00000180: ba95 073e 5bd3 1fbe f05c 23bf 7f78 1bbd
00000190: 2277 e33c b471 6b3b 7c3a a3be 32fa 21bf
000001a0: d63d 40bc b5d2 be3d 3db3 33be 2682 da3e
000001b0: df17 1b3f 07ab 553d 2d49 a0bd b8e6 fbbe
000001c0: f75b 82be 48be 453e 4dd6 0dbd a680 37be
000001d0: 709a 90be 2944 893e fb36 273d eca9 183d
000001e0: d049 853d 5e60 53bd 0ef7 b8ba 63fe 12bd
000001f0: 07c3 2f3d a8d8 50bd 4cf7 cc3d 8968 18bc
00000200: 30f2 663c d64e 10bd 14bc c53c 1a6d ecbc
00000210: e1ed f3bb 2213 073e 2907 6fbe daa3 94bc
00000220: d912 7cbd ad8a b83d 334e 043e 7bab a2bc
00000230: ae0d afbd f7f0 86bc 056c 3abe 7c91 893d
00000240: 63b5 83bd c01b 3dbe f2f0 51bf 7964 9ebd
00000250: 64e8 6fbe 489f 0a3e 1ac3 25bf bc9c 273f
00000260: f009 bf3d 731c 66bd 7e07 3c3e 323c 85bd
00000270: 1f10 b5be 0eec c5be b0f9 20be ac1a a1be
00000280: 5f23 8cbe db7b a4be 22e5 cbbe 92bb 563d
00000290: 38d3 87be e959 a3bd e889 1cbe 37be 233f
000002a0: 2665 03be 809e 003d b567 5dbc ee29 f03d
000002b0: a156 c63d 1bb1 b83d b2f3 81bb 596c c93d
000002c0: d1e4 3b3d 8d50 813d 9d23 463c d9d5 243d
000002d0: 4b42 393e 3ee8 edbc 4472 eebd 71a8 07bc
000002e0: 6ce8 74bc b50b 73bd 88a7 b03d 82e9 af3c
000002f0: 5930 c23d 6176 4abe 100f 5fbc fbc6 89bc
00000300: 4de9 b03e 7eb7 85bd aaa1 153f f94c ddbd
00000310: 2eed 49be 5155 26bb 3283 f5be 137a e0be
00000320: 9d3b 643e a7ce 8b3e 0453 5cbd 2894 ec3d
00000330: 8160 d93d 9dee 83be 6305 83bd 38d4 83be
00000340: 7610 1dbe 1cae e13e 8fae 033f 4268 50be
00000350: 479e f4be 7c2e 14bc 5f8f 9f3d c11b eebd
00000360: ed80 e03d 9eaf 77bd 2102 203c b5d1 cfbd
00000370: f03e 663d fbc1 de3d e9d0 8dbd ae8d d5bd
00000380: 85ab 423b 40d4 dd3c 6275 a7bc 5b77 a1bc
00000390: 5ba5 dcbd b6f0 4b3c e23f b7bd 1d54 8bbc
000003a0: 044d 5d3e fc75 25bd dce2 ee3d 6500 fe3d
000003b0: 9430 a03c 4306 27be b85a 663c 6732 d8bd
000003c0: 0d32 31be c123 2ebe 1f2c 0d3f 7caa 413e
000003d0: 7714 473e 9d22 cabd da10 a43f 61aa 6f3f
000003e0: d766 f23c 943f a3bd edac 84bd 88ba 8abe
000003f0: 944e f23d 32f3 efbd 9f2f d63d cc5a afbe

bias f4 [512]
0.112658106 -0.22211477 -0.17131488 -0.041712455 -0.118877426 0.06325641 0.2196968 -0.0749452
-0.1736987 -0.24199405 0.1350763 0.17206094 -0.011907398 0.05655156 0.02601314 -0.01641296
-0.0015114538 -0.14955895 -0.19092041 -0.18470302 0.08577102 0.10862085 -0.07257256 0.029205756
-0.009550619 0.0169023 -0.015685115 -0.028895063 0.10470352 0.14993575 -0.098678805 -0.08582687
-0.048296385 -0.029571496 0.1836255 0.059694078 -0.21249132 -0.1889103 0.016194133 0.11341743
-0.15720163 -0.06359501 -0.18432255 -0.18398081 -0.0072567523 -0.118381634 0.16683863 0.04539047
-0.115008764 -0.018665379 0.0513718 0.10407234 0.103567176 0.16744632 -0.10173487 -0.020087477
-0.123654 -0.19013555 -0.13472529 -0.1845765 -0.2817277 0.026348338 0.07510001 -0.11108868
0.10284705 0.061268892 0.11776079 0.16529459 -0.21193838 -0.23622712 -0.25663373 -0.06743046
-0.1787037 -0.07445032 0.09189872 -0.16288137 0.08308289 0.18465018 0.14387693 0.11982883
-0.18309091 0.091896534 -0.18429329 0.16682184 0.058777444 0.17426886 0.041554738 0.11010494
0.07487407 0.2309544 -0.07538561 -0.026146397 -0.070895165 0.04445635 0.07561519 0.045402396
-0.2230602 0.004538657 -0.1758854 0.007565617 -0.058964636 0.040904496 0.046451252 0.04682336
0.09064054 -0.11474743 -0.012295466 0.07007219 -0.22976151 -0.104519 0.13046621 0.10008617
-0.03523028 0.22559343 -0.059725933 0.23425716 -0.14017664 -0.19024603 0.050057605 0.0024443495
-0.17021587 -0.003378632 -0.2736039 0.04690475 -0.14035721 -0.1494196 0.09160267 -0.21879897
0.08336395 -0.16670471 -0.047441285 0.062616535 -0.095105916 -0.10300191 0.1880217 0.1605033
-0.3065526 -0.0117031345 -0.04518323 -0.06277178 0.006699131 0.10299564 -0.07801774 -0.03894217
-0.011226268 -0.120292425 0.05549036 0.009978482 -0.04243245 -0.07405405 0.080854386 -0.028932149
-0.23555239 0.027913658 -0.04777979 0.11330098 -0.15576233 0.075108364 -0.10050487 -0.2587914
-0.008670582 -0.09959642 -0.0327353 -0.16118784 0.23016901 -0.007176473 0.23827934 0.16510117
-0.17118171 -0.13710263 0.026574582 -0.14040734 0.05060987 0.19440794 0.14897916 -0.055203043
0.12754841 0.0021037688 0.01881739 -0.15402092 0.09646014 0.09634461 0.089144304 0.19975813
0.111505136 -0.16301969 -0.03253172 0.055351987 0.14125788 -0.09030818 -0.03886303 0.014893805
0.26400417 -0.10835401 0.16229767 -0.16538006 -0.038525593 -0.052190464 -0.16671379 0.0014379888
-0.21192658 -0.09580042 0.004410988 0.101580985 0.0028790494 -0.10852799 -0.2523729 -0.18713363
0.03275932 -0.022021078 -0.12890895 -0.18612605 -0.3152507 0.105995946 0.044083405 -0.12155993
0.17150047 0.0058395592 0.19626836 0.029215055 0.12904218 0.12740265 0.09943442 0.07494536
0.11385274 -0.09862497 -0.2689377 0.06729605 -0.13843843 0.058462672 -0.10855229 -0.03989024
0.15328565 0.18087038 0.07088947 0.041179255 0.050405946 -0.029247839 -0.033662803 0.06810807
-0.0494478 -0.09523426 0.07246348 -0.15729852 -0.21118058 -0.16586024 0.033243224 0.015234843
0.070065066 0.1961408 -0.24628358 0.057940777 -0.043751415 -0.08395712 -0.039952137 0.051280305
00000000: 4bb9 e63d 0e72 63be 2b6d 2fbe aeda 2abd
00000010: 0276 f3bd 948c 813d 33f8 603e de7c 99bd
00000020: 12de 31be 4acd 77be 7151 0a3e be30 303e
00000030: 3f17 43bc 9ca2 673d 8219 d53c 7974 86bc
00000040: f91b c6ba fb25 19be a480 43be ca22 3dbe
00000050: b7a8 af3d 9c74 de3d eca0 94bd e940 ef3c
00000060: 337a 1cbc b176 8a3c 127e 80bc 57b5 ecbc
00000070: cd6e d63d c288 193e 1d18 cabd ffc5 afbd
00000080: 6ed2 45bd ec3f f2bc 5308 3c3e c781 743d
00000090: 5397 59be b471 41be 8fa9 843c 6647 e83d
000000a0: 77f9 20be 1a3e 82bd 0dbf 3cbe 7765 3cbe
000000b0: 0dca edbb 1272 f2bd bfd7 2a3e 5ceb 393d
000000c0: b789 ebbd 23e8 98bc 3d6b 523d e123 d53d
000000d0: 071b d43d 0c77 2b3e 5f5a d0bd 7e8e a4bc
000000e0: 4f3e fdbd e5b2 42be 6df5 09be 9f01 3dbe
000000f0: 9d3e 90be 78d8 d73c 09ce 993d 7682 e3bd
00000100: 79a1 d23d 17f5 7a3d 922c f13d fc42 293e
00000110: 6006 59be 86e5 71be 7f65 83be fb18 8abd
00000120: 1afe 36be 6979 98bd 6535 bc3d 60ca 26be
00000130: 5d27 aa3d f014 3d3e 7954 133e d168 f53d
00000140: 2f7c 3bbe 4034 bc3d 61b7 3cbe 58d3 2a3e
00000150: 9ec0 703d 8973 323e 4d35 2a3d b37e e13d
00000160: 9457 993d 4f7f 6c3e c563 9abd f830 d6bc
00000170: 7c31 91bd dd17 363d 23dc 9a3d ddf7 393d
00000180: e569 64be 04b9 943b 4d1b 34be ffe8 f73b
00000190: e784 71bd 798b 273d ab43 3e3d dac9 3f3d
000001a0: bfa1 b93d b300 ebbd ec72 49bc 0282 8f3d
000001b0: 9a46 6bbe 0f0e d6bd ef98 053e faf9 cc3d
000001c0: a04d 10bd f701 673e 2ea3 74bd 1ce1 6f3e
000001d0: 778a 0fbe dbcf 42be 3409 4d3d 6131 203b
000001e0: 124d 2ebe 0a6c 5dbb cf15 8cbe 321f 403d
000001f0: cdb9 0fbe 7401 19be 2e9a bb3d d60c 60be
00000200: b8ba aa3d a4b4 2abe cb51 42bd 193d 803d
00000210: e4c6 c2bd aaf2 d2bd c388 403e fa5a 243e
00000220: 76f4 9cbe 81be 3fbc 0d12 39bd 7e8e 80bd
00000230: 6284 db3b 61ef d23d c4c7 9fbd d381 1fbd
00000240: 61ee 37bc e05b f6bd dc49 633d c97c 233c
00000250: a6cd 2dbd a6a9 97bd fc96 a53d 1d03 edbc
00000260: a534 71be 2fab e43c beb4 43bd 580a e83d
00000270: 2980 1fbe 6ad2 993d 7fd5 cdbd 4e80 84be
00000280: 0f0f 0ebc 35f9 cbbd 7315 06bd 6d0e 25be
00000290: 6db1 6b3e 9e28 ebbb 80ff 733e 4810 293e
000002a0: 424a 2fbe a264 0cbe f0b2 d93c f1c6 0fbe
000002b0: 4c4c 4f3d e012 473e fe8d 183e 961c 62bd
000002c0: 0d9c 023e 62df 093b ed26 9a3c a9b7 1dbe
000002d0: e58c c53d 5350 c53d 4a91 b63d 658d 4c3e
000002e0: ce5c e43d a2ee 26be fb3f 05bd c4b8 623d
000002f0: e8a5 103e 7ff3 b8bd d72e 1fbd 2505 743c
00000300: 8e2b 873e b5e8 ddbd 5c31 263e 6459 29be
00000310: 03cd 1dbd abc5 55bd 05b7 2abe e67a bc3a
00000320: 4803 59be 0333 c4bd 0d8a 903b b109 d03d
00000330: 6fae 3c3b ec43 debd 0537 81be f59f 3fbe
00000340: a32e 063d 8c65 b4bc b500 04be d497 3ebe
00000350: 8a68 a1be 6714 d93d cd90 343d 6af4 f8bd
00000360: d29d 2f3e c659 bf3b 93fa 483e 6954 ef3c
00000370: a223 043e d775 023e 46a4 cb3d f47c 993d
00000380: a02b e93d e3fb c9bd 34b2 89be 83d2 893d
00000390: cec2 0dbe 8e76 6f3d aa50 debd f363 23bd
000003a0: eaf6 1c3e 1636 393e 802e 913d 94ab 283d
000003b0: 7776 4e3d 2a99 efbc 02e2 09bd 3e7c 8b3d
000003c0: c789 4abd 2e0a c3bd bc67 943d dd12 21be
000003d0: b93f 58be 44d7 29be 0c2a 083d 909b 793c
000003e0: 467e 8f3d 22d9 483e c331 7cbe 4f53 6d3d
000003f0: af34 33bd b6f1 abbd daa4 23bd 4c0b 523d

weight f4 [256, 512]
-0.003338417 0.06995224 0.058074664 -0.1019844 0.08271906 0.0704721 -0.018617861 -0.05899309
-0.02457797 0.03791181 -0.087539405 -0.00094388035 -0.00018750725 -0.036351617 -0.059893064 -0.07247546
-0.03484452 -0.053544067 -0.041220047 -0.04088688 0.048076008 -0.0059937923 0.018268278 -0.033621226
-0.009703712 -0.08642799 0.048888106 -0.12281895 0.022002323 0.0067707757 -0.051593818 0.003466129
0.068682626 0.010819607 -0.03136334 -0.013286708 -0.0012080699 -0.06452047 -0.0037237382 -0.0074729957
0.0028718174 -0.12044118 0.00080223795 0.07347875 -0.05857838 -0.029297775 0.035377696 -0.0073314654
0.04259987 -0.021753863 0.008417253 -0.013107773 -0.07535028 0.054978177 0.03713712 -0.004850124
-0.17981464 -0.12323518 -0.098401956 -0.049934495 0.011376638 -0.021416651 0.04304436 -0.09377076
-0.082226254 -0.21704441 -0.0005024783 0.01016582 0.11925765 0.049351323 0.051263224 -0.08244291
-0.10707898 -0.07059123 -0.08229011 0.01775459 -0.012226571 0.03199043 0.007304723 -0.03506664
-0.03524296 0.011429827 -0.06329166 -0.060665168 -0.014839947 -0.003930995 -0.013705542 0.041735176
0.007252533 0.009814559 -0.046537146 0.058786113 0.0042839404 -0.01205049 -0.14682586 0.23736492
0.05754578 -0.011521127 0.031624824 -0.028942138 -0.023463396 -0.009586889 -0.06294036 0.17785485
-0.14747207 0.025018798 -0.077417165 -0.015512797 -0.002694063 0.007338913 0.06044292 -0.06309511
0.0031375836 -0.11112586 -0.08019957 0.08449731 -0.012589577 -0.03976962 0.0055001397 0.0016550906
0.054250874 -0.044499815 -0.07956539 0.0428206 -0.024675373 0.020617915 -0.0035029799 0.022192238
0.11204968 0.055998772 -0.01894216 -0.21316975 -0.035451572 -0.06044902 -0.016383683 -0.04799282
-0.034545008 -0.11860797 0.0059715374 0.06520053 -0.10872428 -0.053284228 0.02427202 -0.033030625
0.043809485 -0.14021312 0.02437313 -0.023741625 -0.028418321 -0.023536481 0.0871457 -0.076837145
0.044812817 0.022372866 0.1280541 -0.033682335 -0.092882924 -0.058549605 0.017993968 -0.03748186
0.032021735 -0.07457772 0.05129216 -0.041947536 0.03156687 -0.053276703 0.0773784 -0.04945601
-0.05830142 0.06600013 -0.07857699 0.0031176729 0.051137827 0.08598647 -0.03790387 -0.08254535
-0.04691955 -0.02838444 0.03709773 -0.012875161 -0.2101431 -0.050099988 0.0976365 0.009171438
0.0049281633 0.011504256 -0.043417472 0.10944158 0.0753674 0.0261117 -0.012816756 -0.053932346
-0.17899072 -0.15811458 -0.009581136 0.010956898 -0.03436757 0.0132609 -0.017115904 -0.060696587
-0.020798266 -0.022520134 0.016915262 -0.048445493 -0.002469696 -0.010463284 -0.0749271 -0.075140424
-0.12693405 -0.0014218449 -0.039699122 0.07074622 -0.013740301 0.0052329283 -0.021735115 0.075210206
-0.0049729035 -0.020286042 -0.10398488 -0.042895406 0.03731686 -0.06706566 0.044397574 -0.002301492
-0.010348436 -0.072783686 0.0785118 0.0065000337 -0.0627711 -0.08567126 0.08930019 -0.057692274
-0.022716608 0.039134078 -0.048964545 -0.044666935 0.007129514 -0.1521457 -0.10559807 -0.024772393
-0.12890281 0.06193355 -0.008364485 0.057833545 -0.044365093 0.13341463 -0.066111825 -0.12417633
-0.020876009 0.056206018 -0.030291863 -0.061432775 -0.056510832 0.018792793 -0.017651444 0.021837257
00000000: 58c9 5abb 1f43 8f3d b3df 6d3d 32dd d0bd
00000010: 9c68 a93d ad53 903d 7c84 98bc bda2 71bd
00000020: bd57 c9bc 6a49 1b3d dc47 b3bd bd6e 77ba
00000030: 989d 44b9 6fe5 14bd 6e52 75bd 046e 94bd
00000040: 21b9 0ebd 0651 5bbd 5ad6 28bd 0079 27bd
00000050: 59eb 443d 9367 c4bb 5ba7 953c 69b6 09bd
00000060: 51fc 1ebc 2801 b1bd e53e 483d 8088 fbbd
00000070: 373e b43c 62dd dd3b 0a54 53bd ff27 633b
00000080: 7aa9 8c3d b944 313c d876 00bd 7eb0 59bc
00000090: 1958 9eba 4f23 84bd f609 74bb 08e0 f4bb
000000a0: 1a35 3c3b dea9 f6bd 474d 523a 077c 963d
000000b0: e2ef 6fbd e301 f0bc 34e8 103d ca3c f0bb
000000c0: 347d 2e3d 2835 b2bc 85e8 093c fcc1 56bc
000000d0: 3f51 9abd cc30 613d 181d 183d caed 9ebb
000000e0: 5421 38be ba62 fcbd f786 c9bd 1d88 4cbd
000000f0: 1465 3a3c f971 afbc 484f 303d e20a c0bd
00000100: 3d66 a8bd e440 5ebe bfb8 03ba 8a8e 263c
00000110: 5b3d f43d 9d24 4a3d 63f9 513d d4d7 a8bd
00000120: 394c dbbd 2392 90bd b887 a8bd 1372 913c
00000130: f551 48bc 6608 033d 755c ef3b 09a2 0fbd
00000140: ec5a 10bd 2b44 3b3c 0f9f 81bd 0a7c 78bd
00000150: 4023 73bc 93cf 80bb 368d 60bc 81f2 2a3d
00000160: a8a6 ed3b 3ecd 203c bc9d 3ebd b5c9 703d
00000170: 4c60 8c3b 6b6f 45bc 8559 16be ca0f 733e
00000180: 20b5 6b3d 1cc3 3cbc 0889 013d 1018 edbc
00000190: 4f36 c0bc 5412 1dbc e0e6 80bd 951f 363e
000001a0: eb02 17be 39f4 cc3c e48c 9ebd 6329 7ebc
000001b0: e08e 30bb 447b f03b ff92 773d 0238 81bd
000001c0: eb9f 4d3b f495 e3bd ac3f a4bd ed0c ad3d
000001d0: 8344 4ebc 78e5 22bd 843a b43b a0ef d83a
000001e0: 2a36 5e3d 7045 36bd 2ef3 a2bd a764 2f3d
000001f0: 0224 cabc e7e6 a83c 4092 65bb 7fcc b53c
00000200: 4d7a e53d f85e 653d 972c 9bbc 2c49 5abe
00000210: ab35 11bd 6499 77bd 1337 86bc 1f94 44bd
00000220: 117f 0dbd bce8 f2bd e3ac c33b db87 853d
00000230: d6aa debd 9040 5abd 1ed6 c63c 1f4b 07bd
00000240: 9371 333d 0794 0fbe 29aa c73c cc7d c2bc
00000250: 8acd e8bc 94cf c0bc 7279 b23d cb5c 9dbd
00000260: a58d 373d 4d47 b73c 9d20 033e 7df6 09bd
00000270: 6739 bebd b6d1 6fbd 1668 933c 9486 19bd
00000280: 3929 033d 34bc 98bd ba17 523d 2ed1 2bbd
00000290: 434c 013d ac38 5abd 9178 9e3d 6392 4abd
000002a0: 78cd 6ebd 132b 873d f9ec a0bd df51 4c3b
000002b0: e675 513d ad19 b03d 1741 1bbd 890d a9bd
000002c0: b72e 40bd 7c86 e8bc caf3 173d 57f2 52bc
000002d0: c12f 57be a535 4dbd a5f5 c73d cd43 163c
000002e0: 6e7c a13b 597c 3c3c 85d6 31bd e822 e03d
000002f0: 395a 9a3d 34e8 d53c 5ffd 51bc 2ae8 5cbd
00000300: 5849 37be cae8 21be 32fa 1cbc 9084 333c
00000310: 02c5 0cbd 3f44 593c a736 8cbc fc9c 78bd
00000320: 2061 aabc 257c b8bc e091 8a3c c86e 46bd
00000330: a0da 21bb 326e 2bbc 6173 99bd 39e3 99bd
00000340: 00fb 01be 335d baba 8c9b 22bd 65e3 903d
00000350: 001f 61bc fc78 ab3b d70d b2bc cf07 9a3d
00000360: bdf3 a2bb ea2e a6bc 06f6 d4bd 18b3 2fbd
00000370: 90d9 183d b959 89bd 3bda 353d a1d4 16bb
00000380: 7d8c 29bc 9d0f 95bd cbca a03d 3cfe d43b
00000390: 228e 80bd 6a74 afbd 05e3 b63d bc4e 6cbd
000003a0: 2e18 babc 0e4b 203d 0c8f 48bd adf4 36bd
000003b0: b39e e93b 15cc 1bbe cd43 d8bd 79ef cabc
000003c0: 19ff 03be 09ae 7d3d 310b 09bc dee2 6c3d
000003d0: 2cb8 35bd d89d 083e a365 87bd 2950 febd
000003e0: 2a04 abbc 4838 663d a426 f8bc efa0 7bbd
000003f0: e777 67bd 58f3 993c c399 90bc 0ce4 b23c

bias f4 [256]
-0.074841194 -0.13034618 -0.17501628 -0.2880813 -0.05675826 -0.06249142 -0.10146992 -0.12298151
0.019540327 0.008084539 -0.0396572 -0.02959319 -0.18173207 -0.034419004 -0.0333436 -0.20189542
-0.012021382 -0.09834972 -0.051801153 -0.12320788 -0.12106187 -0.052515406 -0.12537107 0.07898616
-0.08790793 -0.16184358 -0.1243389 -0.061623693 0.013936312 -0.06034986 -0.124598935 -0.14328592
-0.04585669 -0.01715743 -0.1807824 -0.095986 -0.09048865 -0.15800609 -0.0016301468 -0.10087911
-0.13433073 -0.0044776825 -0.02619967 -0.09238547 -0.0054611815 -0.051958397 -0.121828884 -0.07199006
-0.13511236 -0.05257655 -0.087234534 0.005591346 -0.089434646 -0.05937906 -0.0793877 -0.026486848
-0.06830114 -0.0067705363 -0.0151772695 0.011355112 -0.02837905 -0.03595808 0.058947492 -0.12172936
0.031711902 -0.11569064 -0.1284177 0.024237698 -0.065603815 -0.056705233 0.026845593 -0.077258386
-0.017974488 -0.039120875 -0.033422977 -0.09875793 -0.14733638 -0.1600058 -0.07595626 0.003967492
-0.082820356 -0.066663265 -0.035721283 -0.04496523 0.020137524 -0.060905773 -0.07704741 -0.11795167
-0.089273706 -0.06841974 0.02912554 -0.13099529 0.12698661 0.029351119 -0.055728186 -0.0035593233
-0.04815971 -0.052716244 -0.0743586 -0.13003851 -0.079054296 -0.031242846 -0.04022337 -0.012090101
-0.10815063 -0.09426445 -0.16393697 -0.0011471361 0.0037096841 -0.052483823 0.02475357 -0.05139003
-0.154246 -0.06912475 -0.11876253 -0.07888614 -0.052310742 -0.05540442 -0.078139916 -0.10721651
-0.14386697 -0.06347219 -0.05519614 -0.019275071 -0.012629204 -0.11776628 -0.07476631 -0.05772567
-0.18001366 0.040867582 -0.1452857 -0.014834521 0.022371713 -0.0933757 -0.10479813 -0.00996873
-0.061435044 -0.048920356 0.038005024 -0.1005022 -0.040176682 -0.0903271 -0.032109838 -0.036097493
0.045527007 0.043472175 -0.04247497 -0.097769216 -0.09244711 0.15230182 -0.0893318 -0.057111826
-0.1339939 -0.12202165 -0.13234134 -0.12324484 -0.08625062 -0.048855897 -0.05922433 -0.0625937
0.0061577586 -0.095540114 -0.038249172 -0.02298518 -0.066156805 -0.08691961 -0.027331209 -0.08465612
0.017709441 -0.20230551 -0.023430813 -0.07734029 -0.07047865 -0.04288216 0.02655596 -0.0426478
0.07744077 -0.18609594 0.05204699 -0.021517137 -0.025621912 -0.12147475 -0.114119254 -0.052921876
-0.17753354 0.01589375 0.012388836 -0.14635609 -0.07997156 -0.07303824 -0.011192432 -0.13502657
-0.019400615 -0.020383358 -0.04548496 -0.1174857 -0.110653125 -0.12364997 -0.14955504 -0.024177913
-0.11834987 -0.03610168 -0.0052818125 0.056731556 -0.17343573 0.006351279 -0.0073332908 -0.1449167
0.00263766 -0.09546297 -0.10694463 -0.14789842 0.025823418 -0.036574084 -0.027609311 -0.13404517
-0.074211285 -0.04084099 -0.08152866 -0.018981142 -0.055900026 -0.031750005 -0.084426336 -0.042114455
0.020058475 -0.034816712 -0.17513411 -0.04324015 -0.09270046 -0.0986216 -0.044830583 -0.05846357
-0.08969469 -0.01381703 -0.07959542 -0.05605986 -0.116175614 0.055012308 -0.03795446 -0.035599366
-0.1003512 -0.045555416 -0.077179946 -0.079606876 -0.13105097 -0.052354556 -0.06625053 0.048988976
-0.11622777 0.067422315 -0.1115846 -0.02978747 -0.21498758 -0.11648976 -0.05848162 -0.14599434
00000000: 5746 99bd 7879 05be 7837 33be 647f 93be
00000010: 597b 68bd 01f7 7fbd 76cf cfbd bbdd fbbd
00000020: 0913 a03c 0475 043c 976f 22bd 6b6d f2bc
00000030: f917 3abe f1fa 0cbd 4c93 08bd acbd 4ebe
00000040: 55f5 44bc 946b c9bd 722d 54bd 6a54 fcbd
00000050: 49ef f7bd 651a 57bd 4661 00be 7fc3 a13d
00000060: 1309 b4bd 53ba 25be 65a5 febd 2069 7cbd
00000070: 2155 643c 6a31 77bd ba2d ffbd 8bb9 12be
00000080: 39d4 3bbd bd8d 8cbc 051f 39be 4f94 c4bd
00000090: 1d52 b9bd 59cc 21be a6aa d5ba b599 cebd
000000a0: ff8d 09be 86b9 92bb b1a0 d6bc 9834 bdbd
000000b0: b6f3 b2bb 54d2 54bd 6c81 f9bd 866f 93bd
000000c0: e55a 0abe 825a 57bd 05a8 b2bd 9c37 b73b
000000d0: 8329 b7bd 7537 73bd 0596 a2bd f2fa d8bc
000000e0: 78e1 8bbd 60db ddbb 15aa 78bc cb0a 3a3c
000000f0: 2e7b e8bc c848 13bd ed72 713d 3e4d f9bd
00000100: 57e4 013d 37ef ecbd ee7f 03be 238e c63c
00000110: 4b5b 86bd bf43 68bd 4aeb db3c a539 9ebd
00000120: 3c3f 93bc 363d 20bd 88e6 08bd 9941 cabd
00000130: 59df 16be 8fd8 23be f58e 9bbd bc01 823b
00000140: b89d a9bd c086 88bd 7b50 12bd 762d 38bd
00000150: 73f7 a43c 5578 79bd 08cb 9dbd a590 f1bd
00000160: 22d5 b6bd a61f 8cbd af98 ee3c a123 06be
00000170: c708 023e c271 f03c 3d43 64bd 8943 69bb
00000180: 1e43 45bd fdec 57bd 5249 98bd d128 05be
00000190: 38e7 a1bd fff0 ffbc 43c1 24bd 8f15 46bc
000001a0: 147e ddbd b80d c1bd 18df 27be 805b 96ba
000001b0: 2c1e 733b 47f9 56bd 00c8 ca3c 5a7e 52bd
000001c0: aaf2 1dbe 4791 8dbd c539 f3bd 0e8f a1bd
000001d0: ca43 56bd bfef 62bd d207 a0bd 5494 dbbd
000001e0: dd51 13be b5fd 81bd 5915 62bd c1e6 9dbc
000001f0: b9ea 4ebc 732f f1bd 141f 99bd c171 6cbd
00000200: 8055 38be c464 273d c6c5 14be 7e0c 73bc
00000210: e244 b73c c23b bfbd 67a0 d6bd e253 23bc
00000220: 50a3 7bbd b660 48bd 28ab 1b3d 19d4 cdbd
00000230: 4e90 24bd 6afd b8bd 9b85 03bd f7da 13bd
00000240: 877a 3a3d e10f 323d 3cfa 2dbd 3a3b c8bd
00000250: e954 bdbd 02f5 1b3e 97f3 b6bd 17ee 69bd
00000260: b235 09be 7de6 f9bd 7d84 07be ca67 fcbd
00000270: 2aa4 b0bd 1f1d 48bd 3695 72bd 2031 80bd
00000280: 06c7 c93b 89aa c3bd 2aab 1cbd 6b4b bcbc
00000290: 387d 87bd e902 b2bd b3e5 dfbc 3060 adbd
000002a0: 6413 913c 2d29 4fbe faf1 bfbc 9664 9ebd
000002b0: 1c57 90bd 34a5 2fbd e28b d93c 76af 2ebd
000002c0: 4499 9e3d ef8f 3ebe 392f 553d b544 b0bc
000002d0: 0be5 d1bc c1c7 f8bd 5bb7 e9bd 9cc4 58bd
000002e0: 5acb 35be 9c33 823c 8bfa 4a3c 5fde 15be
000002f0: 21c8 a3bd 1395 95bd 7660 37bc 6844 0abe
00000300: 0aee 9ebc 00fb a6bc 704e 3abd 589c f0bd
00000310: 1b9e e2bd 323c fdbd f524 19be c210 c6bc
00000320: 6b61 f2bd 5bdf 13bd 0e13 adbb 595f 683d
00000330: 2399 31be 641e d03b 1a4c f0bb 0b65 14be
00000340: 97dc 2c3b 1782 c3bd c905 dbbd af72 17be
00000350: a28b d33c b5ce 15bd ec2c e2bc 2343 09be
00000360: 16fc 97bd e248 27bd 80f8 a6bd 577e 9bbc
00000370: 6df7 64bd 4b0c 02bd b7e7 acbd 3580 2cbd
00000380: ac51 a43c f89b 0ebd 5b56 33be 951c 31bd
00000390: bdd9 bdbd 1ffa c9bd 46a0 37bd 7f77 6fbd
000003a0: dab1 b7bd d360 62bc ec02 a3bd 069f 65bd
000003b0: 7bed edbd 9654 613d 2376 1bbd a4d0 11bd
000003c0: ee84 cdbd 5198 3abd 8510 9ebd ee08 a3bd
000003d0: 3a32 06be bb71 56bd 5cae 87bd aaa8 483d
000003e0: d308 eebd b614 8a3d 7786 e4bd da04 f4bc
000003f0: b425 5cbe 2f92 eebd 6c8a 6fbd 8a7f 15be

weight f4 [128, 256]
0.10254935 0.048326205 0.076762944 0.025082815 -0.099882334 0.01815374 0.03425266 -0.036080632
-0.0065357005 0.010316251 0.013944415 -0.035832077 -0.013117696 -0.0033262917 0.03180817 0.053357687
-0.016813772 -0.23259501 0.07392662 0.027098862 -0.029670823 -0.034747668 0.0140945595 -0.00012739202
0.08107271 0.019173505 0.08344821 -0.07565519 0.026712023 -0.033792935 -0.049634002 0.026809692
0.08863671 0.0701447 0.03226112 -0.05108592 0.037868075 0.0662174 -0.004890757 -0.035451237
-0.07524193 -0.035781298 0.11595144 -0.009587532 -0.07115033 -0.0458839 0.07027457 0.14447471
-0.0419033 0.007967552 -0.0397378 -0.19530433 0.14508429 0.0026726837 0.049622856 0.005604479
0.12079608 -0.065172 -0.15813223 -0.08949389 -0.11752435 -0.036327027 -0.059830848 0.053373918
0.078116156 -0.054776788 0.04261872 -0.14958492 -0.0501043 0.05402818 0.083938815 -0.06978802
0.06603892 0.0352305 -0.031088978 -0.04298242 0.02252118 0.07219546 0.09041796 -0.025793068
0.034223475 -0.050221693 0.014410941 -0.0005458514 -0.062085308 -0.00231731 -0.03907168 0.001321952
0.04342563 0.08971418 4.295972e-05 0.0071015097 -0.097272046 -0.057116963 0.041304864 -0.44602618
-0.056140047 0.026996309 -0.047551602 0.012277423 -0.0759972 -0.00021320558 -0.045008514 -0.03566016
0.0026123633 -0.010308242 0.02651613 -0.00666264 0.017785907 -0.084423386 -0.04838055 0.09529116
-0.12057509 -0.055987116 0.00018664154 -0.004397185 0.07835761 -0.0009317342 0.063373245 -0.022113323
0.08041523 -0.006543236 0.0135129215 0.051607177 0.038883455 -0.064057276 -0.19079864 0.07271868
-0.044507757 -0.15094584 0.0077470927 0.012727072 -0.026722044 -0.049374126 0.02379852 0.09061784
-0.031863183 0.058083892 -0.03458893 -0.00048022534 0.05122378 -0.009365296 -0.088289134 -0.056053333
0.05363546 -0.038152102 -0.2654633 0.06297936 0.034779307 -0.0846944 0.07067546 -0.008474741
0.0053481385 0.011903815 -0.049128845 -0.032671127 -0.04721808 0.08760312 -0.0018554339 -0.01673075
-0.023677781 -0.013044705 -0.040052593 0.08599604 -0.020686796 0.11160081 -0.022000205 0.06752855
-0.08065808 -0.017716892 0.009171527 0.024829283 0.029456193 -0.06631848 -0.13937949 0.051208917
-0.010769424 -0.012743167 -0.064176776 0.05769864 -0.07093865 0.027755983 0.008387959 0.08744839
0.13682124 -0.063439324 -0.105213486 0.109970786 0.014760965 0.025334388 -0.05655862 0.052718733
-0.039744876 -0.017210664 0.001439637 0.013287345 0.02132718 0.0045245243 -0.13792038 -0.014905049
-0.09141122 -0.034504514 0.00076681667 -0.096780725 -0.003906382 -0.024328768 0.034191236 0.022479236
-0.052642662 -0.037764646 0.009291623 0.12267592 -0.06171762 -0.20501494 0.1010694 -0.05530066
-0.024911612 -0.0060940497 0.029496044 0.012869796 -0.043154474 -0.010101521 0.009582805 0.13541162
-0.005676681 0.026031649 0.046061635 0.004457627 0.017196834 -0.018317029 -0.022115348 -0.11915309
-0.0060014576 -0.0068232235 0.021727037 0.1086918 0.024388758 0.0001981057 0.006921567 -0.063282974
0.057873547 -0.0140319355 0.0028088712 -0.023343595 -0.028016197 0.05056873 -0.10616071 -0.027950179
0.051833123 -0.083775856 -0.0590696 -0.034008715 -0.062989995 0.07870062 -0.018043557 -0.017335894
00000000: 6505 d23d b3f1 453d e435 9d3d 7a7a cd3c
00000010: 1c8f ccbd 27b7 943c 844c 0c3d 49c9 13bd
00000020: 6e29 d6bb 7e05 293c 1e77 643c a8c4 12bd
00000030: 9beb 56bc eafd 59bb 4949 023d 978d 5a3d
00000040: 09bd 89bc 632d 6ebe d766 973d 6ffe dd3c
00000050: 3a10 f3bc 9253 0ebd deec 663c 8994 05b9
00000060: 7309 a63d c111 9d3c e5e6 aa3d 1cf1 9abd
00000070: 2cd3 da3c 766a 0abd 064d 4bbd 00a0 db3c
00000080: 2a87 b53d 06a8 8f3d 3c24 043d 783f 51bd
00000090: 8e1b 1b3d fd9c 873d a542 a0bb 5135 11bd
000000a0: 7118 9abd 698f 12bd f377 ed3d 0615 1dbc
000000b0: 44b7 91bd c2f0 3bbd 1dec 8f3d 2ef1 133e
000000c0: cba2 2bbd 568a 023c 1ac4 22bd dcfd 47be
000000d0: fa90 143e 3128 2f3b 5641 4b3d c7a5 b73b
000000e0: ef63 f73d e678 85bd 6aed 21be 9348 b7bd
000000f0: 9bb0 f0bd a6cb 14bd 3111 75bd 9c9e 5a3d
00000100: 5dfb 9f3d a05d 60bd f890 2e3d ca2c 19be
00000110: 2b3a 4dbd a74c 5d3d 1de8 ab3d 05ed 8ebd
00000120: 6a3f 873d db4d 103d 50ae febc 560e 30bd
00000130: 567e b83c 37db 933d 0d2d b93d fc4b d3bc
00000140: ea2d 0c3d 43b5 4dbd de1b 6c3c 7817 0fba
00000150: 2a4d 7ebd 03de 17bb a009 20bd 5945 ad3a
00000160: 13df 313d 11bc b73d a62f 3438 c8b3 e83b
00000170: 9136 c7bd 7af3 69bd 4a2f 293d 8b5d e4be
00000180: 1bf3 65bd 5d27 dd3c 78c5 42bd 3f27 493c
00000190: 6ca4 9bbd f08f 5fb9 d95a 38bd 6310 12bd
000001a0: 2f34 2b3b e7e3 28bc 5b38 d93c 4652 dabb
000001b0: c0b3 913c 2be6 acbd af2a 46bd 0328 c33d
000001c0: 13f0 f6bd bf52 65bd 35b5 4339 4316 90bb
000001d0: f479 a03d a03f 74ba d5c9 813d 0027 b5bc
000001e0: bdb0 a43d a468 d6bb 4d65 5d3c 0c62 533d
000001f0: 4244 1f3d 7630 83bd b860 43be 88ed 943d
00000200: c44d 36bd 8c91 1abe 53db fd3b 3685 503c
00000210: 30e8 dabc 863c 4abd 1df5 c23c d995 b93d
00000220: f882 02bd 60e9 6d3d 1fad 0dbd c1c6 fbb9
00000230: 07d0 513d e670 19bc efd0 b4bd 2e98 65bd
00000240: dbb0 5b3d 6145 1cbd ceea 87be 53fb 803d
00000250: bf74 0e3d 4274 adbd 4cbe 903d a4d9 0abc
00000260: 703f af3b 3808 433c 543b 49bd 29d2 05bd
00000270: bf67 41bd 4469 b33d 0832 f3ba ed0e 89bc
00000280: e8f7 c1bc 75b9 55bc 300e 24bd b11e b03d
00000290: 5b77 a9bc f78e e43d c639 b4bc 694c 8a3d
000002a0: 1030 a5bd 0423 91bc 2c44 163c c866 cb3c
000002b0: 1d4e f13c fcd1 87bd 7fb9 0ebe 71c0 513d
000002c0: 3d72 30bc b7c8 50bc 1d6f 83bd 6955 6c3d
000002d0: 4848 91bd 8460 e33c a66d 093c 2418 b33d
000002e0: de1a 0c3e 7aec 81bd 2b7a d7bd 5d38 e13d
000002f0: f9d7 713c 108a cf3c 03aa 67bd 99ef 573d
00000300: 86cb 22bd 61fd 8cbc 34b2 bc3a 2ab3 593c
00000310: 57b6 ae3c 7642 943b 003b 0dbe 4f34 74bc
00000320: ce35 bbbd 9b54 0dbd 3204 493a f934 c6bd
00000330: 1b01 80bb 204d c7bc 1c0c 0c3d 6026 b83c
00000340: d59f 57bd 1aaf 1abd e43b 183c 833d fb3d
00000350: 9dcb 7cbd 70ef 51be 79fd ce3d f282 62bd
00000360: 7013 ccbc 98b0 c7bb b0a1 f13c d6db 523c
00000370: bfc2 30bd da80 25bc 3301 1d3c 58a9 0a3e
00000380: 7403 babb 5340 d53c 20ab 3c3d 4911 923b
00000390: 60e0 8c3c 980d 96bc 3f2b b5bc 8906 f4bd
000003a0: e0a7 c4bb 5995 dfbb e6fc b13c ce99 de3d
000003b0: efca c73c 98ba 4f39 50ce e23b 819a 81bd
000003c0: d00c 6d3d 34e6 65bc 0a15 383b 113b bfbc
000003d0: 3982 e5bc 2821 4f3d c96a d9bd c6f7 e4bc
000003e0: f84e 543d ad92 abbd f7f2 71bd b94c 0bbd
000003f0: e600 81bd ca2d a13d 15d0 93bc 0104 8ebc

bias f4 [128]
-0.13416973 -0.13273342 -0.09362409 -0.007038497 -0.0683199 -0.015454536 -0.031324267 -0.10416006
0.012590965 -0.16215058 -0.014091545 0.06553337 0.049975127 -0.23943081 -0.11751672 0.02472735
-0.078822106 -0.066794 -0.061215714 0.02660101 -0.008800064 -0.07365641 0.0471073 -0.13291301
-0.10727904 -0.01683401 -0.07419378 -0.13008401 0.00024778396 -0.07121983 -0.22682244 -0.029551221
-0.09610732 -0.05499296 -0.09376236 -0.15897414 0.0046073645 -0.102722034 -0.048939668 0.027217822
-0.015202533 -0.06457728 -0.119088896 -0.101108335 -0.037976436 -0.009212938 -0.12212638 -0.07022868
-0.07322503 0.059924096 -0.08825246 -0.007449582 0.017992483 -0.08905785 -0.10043475 -0.10772363
-0.113039546 -0.040085863 -0.040239815 -0.043308407 -0.0014151918 -0.040384512 -0.015509701 -0.020153679
0.009332447 -0.013833365 -0.11969654 -0.041473392 -0.04790861 -0.12553336 -0.059326842 -0.091737606
-0.007183667 -0.058247566 -0.13897644 -0.016963072 -0.035182055 -0.10793175 0.014064999 -0.16233055
-0.10150913 -0.09735449 -0.06979529 -0.07180331 -0.040724933 -0.030663567 -0.12895453 -0.06516562
-0.027434243 -0.063282944 -0.067642555 -0.1368185 0.01214027 -0.13081308 -0.07299931 0.050852522
-0.16056377 -0.091186896 -0.07427616 -0.08349372 0.014519968 -0.020394523 0.009552244 -0.05493064
0.002302371 -0.022719683 -0.040599626 -0.09699138 -0.043886796 -0.10751655 0.0302333 -0.061063856
9.0574584e-05 -0.16606165 -0.021477673 -0.13064836 -0.053593233 -0.02242725 -0.06941395 -0.048901387
-0.029532053 -0.02554154 0.02461076 -0.042293176 -0.095115304 -0.14849165 -0.021785878 -0.11812843
00000000: ca63 09be 45eb 07be fdbd bfbd 31a3 e6bb
00000010: 4eeb 8bbd 0635 7dbc e04d 00bd df51 d5bd
00000020: 564a 4e3c cd0a 26be 39e0 66bc 5c36 863d
00000030: b8b2 4c3d 5a2d 75be 9bac f0bd 0391 ca3c
00000040: 7c6d a1bd 4bcb 88bd 54bd 7abd 5cea d93c
00000050: 252e 10bc 2cd9 96bd 96f3 403d 591a 08be
00000060: 1db5 dbbd 7ae7 89bc e9f2 97bd be34 05be
00000070: 00e9 8139 b4db 91bd 2444 68be 6715 f2bc
00000080: ead3 c4bd 4c40 61bd 7b06 c0bd 1eca 22be
00000090: 60f9 963b ee5f d2bd f674 48bd e9f7 de3c
000000a0: 0c14 79bc 1841 84bd e1e4 f3bd e311 cfbd
000000b0: 2e8d 1bbd ddf1 16bc 651d fabd 0ed4 8fbd
000000c0: 01f7 95bd f872 753d b5bd b4bd a01b f4bb
000000d0: f964 933c f663 b6bd bcb0 cdbd 359e dcbd
000000e0: 4781 e7bd 1331 24bd 81d2 24bd 2864 31bd
000000f0: f57d b9ba 3b6a 25bd 671c 7ebc 5419 a5bc
00000100: 1fe7 183c 57a5 62bc 7623 f5bd 01e0 29bd
00000110: d23b 44bd d18b 00be b400 73bd ede0 bbbd
00000120: f764 ebbb 0095 6ebd d74f 0ebe 24f6 8abc
00000130: 0f1b 10bd 520b ddbd e270 663c fb39 26be
00000140: 05e4 cfbd ca61 c7bd d5f0 8ebd 9d0d 93bd
00000150: 30cf 26bd 2932 fbbc a80c 04be 8d75 85bd
00000160: c7bd e0bc 7d9a 81bd 2e88 8abd 261a 0cbe
00000170: fce7 463c ddf3 05be aa80 95bd bc4a 503d
00000180: d46a 24be 32c0 babd 191e 98bd c1fe aabd
00000190: 29e5 6d3c 6a12 a7bc 0481 1c3c f3fe 60bd
000001a0: 60e3 163b a11e babc cb4b 26bd 6ba3 c6bd
000001b0: a4c2 33bd a331 dcbd d3ab f73c 181e 7abd
000001c0: dcf2 bd38 110c 2abe f2f1 afbc afc8 05be
000001d0: 9484 5bbd 5ab9 b7bc e728 8ebd d24c 48bd
000001e0: 34ed f1bc 7e3c d1bc 819c c93c 9c3b 2dbd
000001f0: d0cb c2bd 320e 18be 4c78 b2bc 51ed f1bd

weight f4 [12, 128]
0.0011311099 0.06350909 -0.013022353 0.029449431 -0.042426344 -0.04359919 0.023678828 0.061650846
-0.023756385 0.03730846 -0.07501107 -0.047993205 0.0018399771 0.02149032 0.0045742835 -0.016376736
0.039633628 0.027178135 0.014285392 0.03471299 0.06837176 -0.006555999 -0.045559138 0.07425312
0.058054253 0.025119184 0.0066774585 -0.0064000953 0.0031065186 -0.027105656 0.085425265 0.024599802
-0.03750447 -0.018347826 0.018445171 0.033329837 -0.042282023 -0.043522656 -0.006244179 0.016367182
-0.029775415 -0.03191711 -0.0038046641 0.018136466 0.018677445 -0.021610985 0.023240145 0.03997031
0.02184742 -0.058303874 -0.018914575 -0.0280769 -0.025748637 0.052299745 0.020004673 -0.024384113
0.007816377 -0.03821088 -0.018947778 -0.04510139 0.021108905 0.018803572 -0.0054494105 -0.050144468
0.044422783 -0.025533726 0.016970946 -0.013629285 -0.0165458 -0.0018610115 -0.04308967 0.0064844796
-0.06429886 0.0029710566 0.010726349 0.00925286 0.055401128 0.039618075 -0.040936064 0.0068995366
-0.02591614 -0.0011259951 -0.02350162 -0.043944303 -0.002147311 -0.10181539 -0.0310673 -0.02622235
0.002102744 0.035745952 0.0109546445 0.06187441 0.011780247 0.032179296 -0.0008699422 -0.021886365
0.05857431 0.030373894 -0.0006951769 0.02897374 0.02693165 -0.020530635 -0.010638764 -0.04611781
-0.050683375 0.07203978 0.02738313 0.017776962 -0.0055511957 -0.012552875 -0.040757082 -0.0021584507
-0.032632798 0.062010143 0.023907967 0.052608732 -0.069067195 0.031531617 6.651207e-05 -0.043582812
0.04475759 0.05532642 -0.024920078 0.0042011715 -0.021762762 -0.01389109 -0.027104719 0.014767849
0.012581565 -0.0070408103 0.017936373 0.040434975 0.023456424 -0.024892548 -0.005049894 -0.014464118
-0.004755298 -0.0151268765 -0.047541145 -0.014041698 0.0018610931 -0.11281982 -0.043228384 -0.0008265972
0.035796825 0.026041595 0.052080296 -0.011172183 -0.0069596204 -0.005415233 0.0013285575 -0.06434119
-0.028644256 0.032020204 -0.01315292 0.006502645 -0.047444366 -0.044105757 0.028474674 -0.01266726
-0.029589789 -0.032649543 0.014285169 0.049752627 -0.02539415 0.039929748 0.04577099 0.010378318
0.018881947 -0.031210102 -0.022092983 -0.044112448 0.020010196 0.008773812 -0.025668658 0.012204151
-0.077177845 0.016759632 -0.03134109 -0.0029226437 0.049059663 -0.017441832 0.036892936 0.056897815
-0.08736549 0.05727914 -0.023047918 0.05796697 -0.008346672 -0.00687646 0.030800499 -0.008068194
-0.0154277105 -0.011641748 -0.040369153 0.0048653693 0.0526381 0.044674344 0.037957225 0.011829258
-0.012689358 0.09304197 -0.053563487 0.055636078 -0.030428892 -0.0061137304 0.05989443 -0.018196924
7.4107906e-05 0.020332243 0.11203283 -0.031712353 0.08891194 -0.05358831 -0.008564572 0.0051786588
-0.055938777 0.03537122 -0.0017427227 -0.0019918343 0.035536546 -0.009604387 -0.02373199 -0.05197634
0.05869021 0.018651487 -0.009508758 -0.0353457 0.005115518 0.073498756 0.024629626 -0.012760876
0.035284314 -0.013255076 -0.088677935 -0.037987977 0.024545847 0.021759935 0.011966274 0.015982844
0.007654299 -0.02901556 0.03137078 -0.02885131 0.012957743 -0.0024093168 0.022926707 0.028871031
-0.009130783 -0.01945953 -0.03335952 0.040261917 -0.039278638 -0.024918541 0.028739857 -0.010442377
00000000: c041 943a 0e11 823d b55b 55bc ef3f f13c
00000010: 3fc7 2dbd 1095 32bd 1afa c13c 9985 7c3d
00000020: c09c c2bc c1d0 183d 679f 99bd 8694 44bd
00000030: 632b f13a 780c b03c dfe3 953b 8128 86bc
00000040: df56 223d aea4 de3c 470d 6a3c 352f 0e3d
00000050: 7e06 8c3d b5d3 d6bb 389c 3abd 0512 983d
00000060: 4cca 6d3d bfc6 cd3c 95ce da3b e4b7 d1bb
00000070: bc96 4b3b ae0c debc 71f3 ae3d 8685 c93c
00000080: 4a9e 19bd 2e4e 96bc 541a 973c de84 083d
00000090: ea2f 2dbd d044 32bd f89b ccbb 7814 863c
000000a0: 92eb f3bc 84bb 02bd ac57 79bb ed92 943c
000000b0: 7101 993c 8509 b1bc 1e62 be3c e8b7 233d
000000c0: 5cf9 b23c 0bd0 6ebd bdf2 9abc 8701 e6bc
000000d0: ceee d2bc 4238 563d d7e0 a33c 31c1 c7bc
000000e0: 4310 003c 0383 1cbd 5f38 9bbc 3cbc 38bd
000000f0: 95ec ac3c f309 9a3c f890 b2bb 4964 4dbd
00000100: aaf4 353d 1b2c d1bc a706 8b3c 5d4d 5fbc
00000110: 0f8b 87bc 2fed f3ba cb7e 30bd c27b d43b
00000120: 1faf 83bd 0fb6 423b 92bd 2f3c 4f99 173c
00000130: 4bec 623d 9046 223d 93ac 27bd 8215 e23b
00000140: 164e d4bc 2096 93ba 7886 c0bc f1fe 33bd
00000150: e7b9 0cbb 9684 d0bd da80 febc 41d0 d6bc
00000160: 31ce 093b 596a 123d 1c7b 333c 0570 7d3d
00000170: f001 413c 70ce 033d d50c 64ba 094b b3bc
00000180: 9eeb 6f3d acd2 f83c 883c 36ba 565a ed3c
00000190: c39f dc3c dd2f a8bc 364e 2ebc 07e6 3cbd
000001a0: 5f99 4fbd 9889 933d 9652 e03c fea0 913c
000001b0: cee6 b5bb 93aa 4dbc e6f0 26bd cb74 0dbb
000001c0: f8a9 05bd 59fe 7d3d a4da c33c 417c 573d
000001d0: 1a73 8dbd 4c27 013d 657c 8b38 e483 32bd
000001e0: bc53 373d f59d 623d 3125 ccbc fba9 893b
000001f0: d247 b2bc 7497 63bc b70a debc d9f4 713c
00000200: e922 4e3c 99b6 e6bb 4def 923c 259f 253d
00000210: b027 c03c 75eb cbbc 9579 a5bb e8fa 6cbc
00000220: 55d2 9bbb b8d6 77bc 81ba 42bd 260f 66bc
00000230: ecef f33a 140e e7bd 3f10 31bd 00b0 58ba
00000240: b19f 123d 2f55 d53c 2652 553d 880b 37bc
00000250: 870d e4bb 4472 b1bb fe22 ae3a 50c5 83bd
00000260: 5ca7 eabc 9e27 033d 587f 57bc 2414 d53b
00000270: 0655 42bd 3da8 34bd b843 e93c 578a 4fbc
00000280: 4966 f2bc 87bb 05bd 570c 6a3c 69c9 4b3d
00000290: 6407 d0bc 608d 233d 5d7a 3b3d d209 2a3c
000002a0: 50ae 9a3c 54ac ffbc 58fc b4bc 41af 34bd
000002b0: 6cec a33c 09c0 0f3c 1447 d2bc ebf3 473c
000002c0: 6b0f 9ebd 7f4b 893c 845f 00bd d389 3fbb
000002d0: c9f2 483d 2ce2 8ebc 0c1d 173d af0d 693d
000002e0: aeec b2bd 889d 6a3d fdce bcbc c66e 6d3d
000002f0: 7bc0 08bc ed53 e1bb 5451 fc3c 7530 04bc
00000300: 82c4 7cbc 08bd 3ebc 205a 25bd ad6d 9f3b
00000310: 0c9b 573d 72fc 363d 0979 1b3d 81cf 413c
00000320: 06e7 4fbc ca8c be3d 6365 5bbd a8e2 633d
00000330: 0346 f9bc b055 c8bb dd53 753d b711 95bc
00000340: 616a 9b38 ce8f a63c 7871 e53d d0e4 01bd
00000350: 7717 b63d 6a7f 5bbd 6b52 0cbc bdb1 a93b
00000360: 0f20 65bd 6ae1 103d 126c e4ba 6f89 02bb
00000370: c58e 113d b85b 1dbc 9769 c2bc 25e5 54bd
00000380: 2565 703d 01cb 983c 9fca 1bbc a7c6 10bd
00000390: 13a0 a73b 8486 963d 12c4 c93c fe12 51bc
000003a0: 4986 103d d12b 59bc c79c b5bd 4899 1bbd
000003b0: 5f14 c93c e441 b23c 310e 443c 74ee 823c
000003c0: ead0 fa3b 0ab2 edbc a67e 003d 9559 ecbc
000003d0: b74c 543c a1e5 1dbb cad0 bb3c f182 ec3c
000003e0: 4899 15bc 9869 9fbc fea3 08bd aee9 243d
000003f0: a3e2 20bd f821 ccbc d96f eb3c 8116 2bbc

bias f4 [12]
-0.085731395 0.0056160646 -0.08785365 0.041371398 0.036479484 0.036708925 0.0053962837 -0.0826709
0.024086155 -0.0001568164 0.12883446 0.057500828
00000000: f193 afbd f706 b83b 9dec b3bd 0e75 293d
00000010: 836b 153d 195c 163d 4fd3 b03b 5c4f a9bd
00000020: 5450 c53c 156f 24b9 2eed 033e fd85 6b3d
